…
2022-10-20 16:14:27.753119: I tensorflow/stream_executor/cuda/cuda_diagnostics.cc:176] hostname: DESKTOP-LD1D5M7
2022-10-20 16:14:27.753539: I tensorflow/core/platform/cpu_feature_guard.cc:193] This TensorFlow binary is optimized with oneAPI Deep Neural Network Library (oneDNN) to use the following CPU instructions in performance-critical operations:  AVX AVX2
To enable them in other operations, rebuild TensorFlow with the appropriate compiler flags.
Model: "sequential"
_________________________________________________________________
 Layer (type)                Output Shape              Param #
=================================================================
 conv2d (Conv2D)             (None, 62, 62, 32)        896

 max_pooling2d (MaxPooling2D  (None, 31, 31, 32)       0
 )

 dropout (Dropout)           (None, 31, 31, 32)        0

 conv2d_1 (Conv2D)           (None, 29, 29, 32)        9248

 max_pooling2d_1 (MaxPooling  (None, 14, 14, 32)       0
 2D)

 dropout_1 (Dropout)         (None, 14, 14, 32)        0

 conv2d_2 (Conv2D)           (None, 12, 12, 32)        9248

 max_pooling2d_2 (MaxPooling  (None, 6, 6, 32)         0
 2D)

 dropout_2 (Dropout)         (None, 6, 6, 32)          0

 flatten (Flatten)           (None, 1152)              0

 dense (Dense)               (None, 64)                73792

 dense_1 (Dense)             (None, 32)                2080

 dense_2 (Dense)             (None, 2)                 66

=================================================================
Total params: 95,330
Trainable params: 95,330
Non-trainable params: 0
_________________________________________________________________
Found 20000 images belonging to 2 classes.
Found 5000 images belonging to 2 classes.
Epoch 1/10
625/625 [==============================] - 49s 77ms/step - loss: 0.6409 - accuracy: 0.6059 - val_loss: 0.5550 - val_accuracy: 0.7216
…
