…
2022-10-20 15:07:46.882115: I tensorflow/stream_executor/cuda/cuda_diagnostics.cc:176] hostname: DESKTOP-LD1D5M7
2022-10-20 15:07:46.882438: I tensorflow/core/platform/cpu_feature_guard.cc:193] This TensorFlow binary is optimized with oneAPI Deep Neural Network Library (oneDNN) to use the following CPU instructions in performance-critical operations:  AVX AVX2
To enable them in other operations, rebuild TensorFlow with the appropriate compiler flags.
Model: "sequential"
_________________________________________________________________
 Layer (type)                Output Shape              Param #
=================================================================
 conv2d (Conv2D)             (None, 62, 62, 32)        896

 max_pooling2d (MaxPooling2D  (None, 31, 31, 32)       0
 )

 conv2d_1 (Conv2D)           (None, 29, 29, 32)        9248

 max_pooling2d_1 (MaxPooling  (None, 14, 14, 32)       0
 2D)

 flatten (Flatten)           (None, 6272)              0

 dense (Dense)               (None, 64)                401472

 dense_1 (Dense)             (None, 2)                 130

=================================================================
Total params: 411,746
Trainable params: 411,746
Non-trainable params: 0
_________________________________________________________________
Found 20000 images belonging to 2 classes.
Found 5000 images belonging to 2 classes.
Epoch 1/10
625/625 [==============================] - 51s 80ms/step - loss: 0.5946 - accuracy: 0.6735 - val_loss: 0.5208 - val_accuracy: 0.7360
…
