…
2022-10-20 15:21:21.781544: I tensorflow/stream_executor/cuda/cuda_diagnostics.cc:176] hostname: DESKTOP-LD1D5M7
2022-10-20 15:21:21.781970: I tensorflow/core/platform/cpu_feature_guard.cc:193] This TensorFlow binary is optimized with oneAPI Deep Neural Network Library (oneDNN) to use the following CPU instructions in performance-critical operations:  AVX AVX2
To enable them in other operations, rebuild TensorFlow with the appropriate compiler flags.
Model: "sequential"
_________________________________________________________________
 Layer (type)                Output Shape              Param #
=================================================================
 conv2d (Conv2D)             (None, 126, 126, 32)      896

 max_pooling2d (MaxPooling2D  (None, 63, 63, 32)       0
 )

 dropout (Dropout)           (None, 63, 63, 32)        0

 conv2d_1 (Conv2D)           (None, 61, 61, 32)        9248

 max_pooling2d_1 (MaxPooling  (None, 30, 30, 32)       0
 2D)

 dropout_1 (Dropout)         (None, 30, 30, 32)        0

 conv2d_2 (Conv2D)           (None, 28, 28, 32)        9248

 max_pooling2d_2 (MaxPooling  (None, 14, 14, 32)       0
 2D)

 dropout_2 (Dropout)         (None, 14, 14, 32)        0

 flatten (Flatten)           (None, 6272)              0

 dense (Dense)               (None, 64)                401472

 dense_1 (Dense)             (None, 2)                 130

=================================================================
Total params: 420,994
Trainable params: 420,994
Non-trainable params: 0
_________________________________________________________________
Found 20000 images belonging to 2 classes.
Found 5000 images belonging to 2 classes.
Epoch 1/10
625/625 [==============================] - 156s 249ms/step - loss: 0.6156 - accuracy: 0.6431 - val_loss: 0.5832 - val_accuracy: 0.6927
…
